This cnn model can do brain tumor prediction based on cancer level 


accuracy details when creating the model is given below

[INFO] Splitting data to train and test...
Model: "sequential"
_________________________________________________________________
Layer (type)                 Output Shape              Param #   
=================================================================
conv2d (Conv2D)              (None, 222, 222, 32)      896       
_________________________________________________________________
max_pooling2d (MaxPooling2D) (None, 111, 111, 32)      0         
_________________________________________________________________
conv2d_1 (Conv2D)            (None, 109, 109, 64)      18496     
_________________________________________________________________
max_pooling2d_1 (MaxPooling2 (None, 54, 54, 64)        0         
_________________________________________________________________
conv2d_2 (Conv2D)            (None, 52, 52, 128)       73856     
_________________________________________________________________
max_pooling2d_2 (MaxPooling2 (None, 26, 26, 128)       0         
_________________________________________________________________
flatten (Flatten)            (None, 86528)             0         
_________________________________________________________________
dense (Dense)                (None, 512)               44302848  
_________________________________________________________________
dropout (Dropout)            (None, 512)               0         
_________________________________________________________________
dense_1 (Dense)              (None, 256)               131328    
_________________________________________________________________
dropout_1 (Dropout)          (None, 256)               0         
_________________________________________________________________
dense_2 (Dense)              (None, 5)                 1285      
=================================================================
Total params: 44,528,709
Trainable params: 44,528,709
Non-trainable params: 0
_________________________________________________________________
[INFO] Training network...
Epoch 1/10
120/120 [==============================] - ETA: 0s - loss: 1.2885 - accuracy: 0.5060
Epoch 00001: val_accuracy improved from -inf to 0.56754, saving model to ctscan.hdf5
…
